CMSS_DFT_2025/Part2_Fine_tuning/answer/checkpoint_shift.pth (torch, 472548 bytes, 48 tensors)

edge_embedding.basis_function.coeffs f4 [8]
0	0x3eb5a8f7	0.35480472
1	0x3f597eb0	0.84958935
2	0x3fb46a41	1.4094926
3	0x3ffa41b5	1.9551302
4	0x4022a056	2.5410361
5	0x4048ec7c	3.1394339
6	0x4070d40d	3.7629426
7	0x408cc826	4.399432

onehot_to_feature_x.linear.weight f4 [3808]
0	0xbf4bfea2	-0.79685414
1	0x3fd3b435	1.653937
2	0x3f5e3a62	0.86807835
3	0x3f82767e	1.0192411
4	0x3f196781	0.5992356
5	0xbebb3d50	-0.36570215
6	0xbf3be22e	-0.73392
7	0xbe732bf9	-0.23747243
8	0xbd9d960e	-0.07694636
9	0xbec26060	-0.37964153
10	0x3e3474ad	0.17622633
11	0xbfb4856e	-1.410322
12	0xbe918342	-0.28420454
13	0x3ec3d0d4	0.3824526
14	0x3f48b30e	0.78398216
15	0x3f19fb9a	0.6014954
16	0x3ea37f8f	0.31933257
17	0xc00d9c69	-2.2126715
18	0xbe479117	-0.19488941
19	0x3edbb28a	0.42909652
20	0xbe1a3d43	-0.15062432
21	0xbf7abb08	-0.9794164
22	0xbe292a2e	-0.16519997
23	0xbf10dec0	-0.5658989
24	0x3f1ce891	0.6129237
25	0x3fcaa914	1.5832849
26	0x400099dc	2.0093908
27	0x3f5483de	0.83013713
28	0x3c2a9b5d	0.010413018
29	0x3fbf3d3d	1.4940563
30	0xbfd70410	-1.6798115
31	0xbf7a12e7	-0.9768509
32	0x3e8441fb	0.2583159
33	0xbec8b895	-0.39203325
34	0x3ec461a5	0.38355747
35	0x3fa91ccb	1.3211912
36	0xbf95cdc5	-1.1703421
37	0x3dbe4083	0.092896484
38	0x3e6f5e8c	0.2337591
39	0xbfbda157	-1.4814862
40	0x3f23471c	0.6378038
41	0x3fbe2e1b	1.485782
42	0x4009b2ec	2.1515455
43	0x3e2fa78e	0.17153761
44	0x3d5f6df8	0.054548234
45	0xbf27697f	-0.6539535
46	0x3ecab32f	0.3958983
47	0xc0594ff8	-3.395506
48	0xbdaeb91f	-0.08531403
49	0xbe4e6f6d	-0.20159693
50	0xbf22f3a1	-0.63653
51	0xbf2bfb63	-0.6718046
52	0xbd9b6ae8	-0.0758875
53	0x3faed78c	1.365953
54	0xbe8079d5	-0.2509295
55	0x40581960	3.3765488
56	0x40872a05	4.2238793
57	0x3f1ae7fa	0.6051022
58	0x3ea0a284	0.3137399
59	0xbce0ed06	-0.027456772
60	0x3e51cdd5	0.20488675
61	0x3d5f5dde	0.054532878
62	0x4018e13f	2.388748
63	0xbe4352bf	-0.19074534
64	0x40277252	2.6163526
65	0xbffffdc7	-1.9999322
66	0xbfc0c6e4	-1.5060697
67	0x40188f2f	2.3837392
68	0xc0900e36	-4.5017347
69	0xc06cc6b6	-3.6996284
70	0x4096fba1	4.7182164
71	0xbfe192b6	-1.7622898
72	0xbf30fbd5	-0.69134265
73	0xbe92e54e	-0.2869057
74	0x3e67e159	0.22644557
75	0xbd4377c1	-0.047721628
76	0xbfe2e945	-1.7727438
77	0x3f99aedc	1.2006488
78	0xbf91c510	-1.1388264
79	0xc0559847	-3.3374193
80	0x3f229d9a	0.6352173
81	0xbff3f93e	-1.9060438
82	0xc06f2d1c	-3.7371283
83	0x3f6bf2f0	0.9216757
84	0x3fd2a055	1.645518
85	0x403e2ba1	2.971413
86	0x3ee5c196	0.44874257
87	0x3fd9c4fb	1.7013239
88	0x4077d08a	3.8721032
89	0x3f6108c3	0.87903994
90	0x4085e2a6	4.183917
91	0x402dbadb	2.7145298
92	0xbe31e1d9	-0.1737131
93	0x3c7d3b5e	0.015456049
94	0xc09dd4ef	-4.932243
95	0x3f92bf24	1.1464581
96	0xbfb83b6c	-1.4393134
97	0x3f79028d	0.9726952
98	0x3ec97006	0.3934328
99	0x3fb39b62	1.4031794
100	0x3c0c50c8	0.008564182
101	0x3da1ab5c	0.07894012
102	0x4029fca6	2.6560454
103	0x3f40df88	0.7534108
104	0xbfcbc2fd	-1.5918881
105	0x408deb08	4.4349403
106	0x3f92cdfa	1.1469109
107	0xbe1e356f	-0.15450071
108	0x3f0a058d	0.5391472
109	0x3f0668a6	0.5250343
110	0xbebfcce9	-0.37461022
111	0xc0023a8f	-2.0348241
112	0xbe810e32	-0.25206143
113	0xbe3811e7	-0.17975579
114	0xbfd25bb1	-1.6434232
115	0x3feef51b	1.866855
116	0x3f8df9ef	1.1091899
117	0x3f60d979	0.87831837
118	0x3ff7a351	1.9346715
119	0xbf9bf09a	-1.2182801
120	0x3fd26a30	1.6438656
121	0xbf091c3c	-0.5355871
122	0x4068a372	3.634976
123	0xbf3599c5	-0.7093776
124	0xc02c76b6	-2.6947455
125	0x40d192ac	6.5491543
126	0xbe7c0b2a	-0.24613634
127	0x4011fd52	2.2810864
128	0xbdc0c301	-0.09412194
129	0x3fdcbd6f	1.724531
130	0xbf0dd935	-0.55409557
131	0x3f8e55ed	1.1119972
132	0x4048d5ce	3.1380496
133	0x3f88baf4	1.0682054
134	0x400c4b82	2.1921086
135	0x3f198a6b	0.59976834
136	0xbeab5960	-0.33466625
137	0x3f75dc14	0.9603894
138	0x40a7ee8a	5.2478685
139	0x3f35f576	0.7107767
140	0x3f9481df	1.1602134
141	0xbffc6836	-1.9719303
142	0x4006cbac	2.1061811
143	0xc0344a65	-2.8170407
144	0x4034e048	2.826189
145	0x3d807375	0.06272022
146	0x40327833	2.7885864
147	0xbd70579c	-0.0586773
148	0x3f62af42	0.8854867
149	0x3eb43039	0.3519304
150	0x3ebe4e7b	0.3716925
151	0xbe9e1aff	-0.3087997
152	0x40556fc7	3.3349473
153	0x3ebe833b	0.37209496
154	0x3f4ef2a4	0.8083899
155	0xbf443785	-0.76647216
156	0xbfc9af33	-1.5756592
157	0x406e4c9e	3.7234263
158	0xbf6e61ee	-0.9311818
159	0x3e182cd9	0.14860858
160	0x3f3b60e4	0.7319472
161	0x3fe93477	1.8219136
162	0xbff037f8	-1.876708
163	0x3ff49ca1	1.9110299
164	0x403046b6	2.7543159
165	0x3f9e8be1	1.2386438
166	0x3f2ab92f	0.6668882
167	0x3f9619d8	1.1726637
168	0x3bf6cd2a	0.0075317817
169	0x3efdbaf5	0.495567
170	0x40885ad7	4.261089
171	0xbf2d8682	-0.6778337
172	0x3f417516	0.75569284
173	0xc00dc5c7	-2.2151964
174	0x3f8cf534	1.101233
175	0xc0a3099f	-5.0949244
176	0x405af023	3.4209068
177	0xbf89c54b	-1.0763334
178	0x4064e40d	3.576419
179	0xc008836b	-2.133021
180	0x3ffd6edb	1.9799455
181	0xbf3be188	-0.7339101
182	0xbd99fe27	-0.07519179
183	0x3fcf749f	1.6207465
184	0x40918935	4.547999
185	0x400294ed	2.0403397
186	0xbfa45b9b	-1.2840456
187	0xbe55e38d	-0.20887585
188	0x3f2e072d	0.679797
189	0x3f6083ed	0.877013
190	0xc0388e95	-2.8837025
191	0x3eb6a80e	0.3567509
192	0x3f6863fe	0.90777576
193	0x40369702	2.8529668
194	0xbf8ebe8d	-1.1151901
195	0x3fd04b72	1.6273024
196	0x3ee5c5d1	0.44877484
197	0xbe851c26	-0.25998038
198	0x3ebff82f	0.37494037
199	0x3f7643a0	0.9619694
200	0xbfb029c0	-1.3762741
201	0xbf353281	-0.7078019
202	0x3f88980d	1.0671402
203	0xbf241ea9	-0.64109284
204	0xbf551d60	-0.8324795
205	0xbecf5010	-0.4049077
206	0x3d9ac620	0.075573206
207	0xc0460555	-3.0940754
208	0x40873102	4.2247324
209	0x3d9970ba	0.07492204
210	0x4019b707	2.401796
211	0xc0731501	-3.798157
212	0x403f9d2e	2.9939685
213	0xbed7c64c	-0.42143476
214	0xbc3fcaf3	-0.011706102
215	0x4091ad8e	4.552436
216	0x40836292	4.1057825
217	0x40a46873	5.13775
218	0xc028968e	-2.6341891
219	0x3ef4d9a3	0.47822294
220	0xbf482b7d	-0.7819136
221	0xbf2b1693	-0.6683132
222	0xbf86a113	-1.0517906
223	0x3da7f51e	0.08201049
224	0x3c3c45fd	0.011491296
225	0xbf7d31e5	-0.9890426
226	0xbfd28d1d	-1.6449314
227	0xbf906f65	-1.1283995
228	0xc00f0a97	-2.2350214
229	0xbddc6f9c	-0.10763475
230	0x3f9cd124	1.2251325
231	0x3fa728f6	1.3059375
232	0xbf1ecd49	-0.6203199
233	0x3eb66b1b	0.3562859
234	0xbfb48c7c	-1.4105372
235	0x3f3c5cee	0.735793
236	0x3f501e95	0.81296664
237	0xbe516040	-0.20446873
238	0xbc80f597	-0.015742106
239	0xbfe72a32	-1.8059752
240	0x40a03a8d	5.0071473
241	0xbea0dc4b	-0.3141807
242	0x3fb3ce69	1.4047366
243	0xc036ca95	-2.8561146
244	0x3fd3b076	1.6538227
245	0xbfefed32	-1.8744261
246	0xbd08b724	-0.03337778
247	0x40ada2af	5.426109
248	0x3f5c27a2	0.85997975
249	0x407c5bc9	3.9431021
250	0xc09ea702	-4.9578867
251	0xbe9c2a2a	-0.3050092
252	0xbfbde7ef	-1.4836406
253	0xbf2d943a	-0.678043
254	0x3fc07048	1.5034266
255	0xbe94f8ef	-0.2909617

onehot_to_feature_x.linear.output_mask f4 [32]
0	0x3f800000	1.0
1	0x3f800000	1.0
2	0x3f800000	1.0
3	0x3f800000	1.0
4	0x3f800000	1.0
5	0x3f800000	1.0
6	0x3f800000	1.0
7	0x3f800000	1.0
8	0x3f800000	1.0
9	0x3f800000	1.0
10	0x3f800000	1.0
11	0x3f800000	1.0
12	0x3f800000	1.0
13	0x3f800000	1.0
14	0x3f800000	1.0
15	0x3f800000	1.0
16	0x3f800000	1.0
17	0x3f800000	1.0
18	0x3f800000	1.0
19	0x3f800000	1.0
20	0x3f800000	1.0
21	0x3f800000	1.0
22	0x3f800000	1.0
23	0x3f800000	1.0
24	0x3f800000	1.0
25	0x3f800000	1.0
26	0x3f800000	1.0
27	0x3f800000	1.0
28	0x3f800000	1.0
29	0x3f800000	1.0
30	0x3f800000	1.0
31	0x3f800000	1.0

0_self_connection_intro.linear.weight f4 [3072]
0	0x3e6ff515	0.23433335
1	0x3f5b9e7f	0.8578872
2	0x40476474	3.1155062
3	0xbf66baa5	-0.90128547
4	0x3f452cd1	0.7702151
5	0x3f8e57e7	1.1120576
6	0x3eed2d23	0.463235
7	0x3f343e55	0.7040761
8	0xc003d431	-2.0598261
9	0xc00f27b7	-2.236799
10	0xbe490ade	-0.19633052
11	0xbef8e558	-0.48612475
12	0x3f3b6e1d	0.73214895
13	0xc038998c	-2.8843718
14	0x3fcf8768	1.6213198
15	0x401f5289	2.4894125
16	0x3edd4407	0.43215963
17	0x3f1f03bb	0.6211507
18	0x3fa57e7a	1.2929223
19	0xbea926b1	-0.33037332
20	0xbfe2aca8	-1.770894
21	0xbf7e87ba	-0.9942585
22	0xbfcf9f16	-1.6220424
23	0xc0014597	-2.0198724
24	0xbfa38ad1	-1.2776738
25	0xbfe5250f	-1.7901934
26	0xc090135c	-4.502363
27	0x3dab55f5	0.083660044
28	0xbee2367e	-0.441822
29	0x3e850b49	0.25985172
30	0x402d40bd	2.7070763
31	0xbf3207cf	-0.69543165
32	0xc09157d2	-4.5419703
33	0xbf9d658e	-1.2296617
34	0xc0b162d3	-5.5433135
35	0x40028e85	2.0399487
36	0x40a1327d	5.037413
37	0x40ef3067	7.4746585
38	0xc00b417e	-2.1758723
39	0xbf942b5c	-1.1575732
40	0x3feb2336	1.837012
41	0xc08f07d3	-4.469705
42	0x3fc1ab2e	1.5130365
43	0xc059e5dc	-3.4046545
44	0xbffbc878	-1.9670553
45	0x3fa956a4	1.3229566
46	0x40229ff0	2.5410118
47	0xc0966ae9	-4.7005506
48	0xbfe84586	-1.8146217
49	0xbdc7c6fa	-0.09754749
50	0x40a76e6f	5.2322307
51	0xc0b13ba6	-5.5385313
52	0xbeceedcb	-0.40415797
53	0xc0760e74	-3.8446321
54	0xbeecdc38	-0.46261764
55	0xbfff0247	-1.992257
56	0xc044cb36	-3.074903
57	0x409812da	4.752301
58	0x40046c11	2.0690958
59	0xc0bc520c	-5.8850155
60	0x405245e9	3.285517
61	0x3da43627	0.08018141
62	0x4000d611	2.0130656
63	0x40cbe7ad	6.3720307
64	0x3f52f910	0.8241129
65	0x401205ec	2.2816114
66	0xbeec67c1	-0.46172908
67	0x3fa81a5d	1.3133045
68	0xc08ba336	-4.363673
69	0x3e28e022	0.1649175
70	0xbf63ee80	-0.890358
71	0x4109d2c0	8.613953
72	0xc06acfb1	-3.6689265
73	0x3dda5ddd	0.10662434
74	0xc0803a86	-4.007144
75	0x40229523	2.5403526
76	0xbf574cc8	-0.84101534
77	0x3e9589c5	0.29206672
78	0xc0a66a29	-5.200459
79	0x40564c42	3.3484044
80	0x3fcce7f8	1.6008291
81	0xbfc8d228	-1.5689135
82	0xc041eaf7	-3.029966
83	0xc0cfaeb4	-6.490076
84	0xc091daa9	-4.557942
85	0xbf26be30	-0.65133953
86	0xc0328de5	-2.7899106
87	0xc0ca7ef5	-6.3279977
88	0xbffcda81	-1.9754182
89	0xc09cc47f	-4.8989863
90	0xbd41239e	-0.047153108
91	0xc09fb5ff	-4.9909663
92	0xc0275002	-2.6142583
93	0x402441f6	2.566526
94	0x3fdee75c	1.7414355
95	0x3f10a4a9	0.5650125
96	0xbf3dc202	-0.7412416
97	0x403a0ac6	2.9069076
98	0x3eb77202	0.3582917
99	0x3ef3ada4	0.47593415
100	0xbeccc173	-0.3999134
101	0xc05be10a	-3.4356103
102	0x3fa4fa93	1.2888969
103	0x4021ff7b	2.5312183
104	0x3db85e84	0.090024024
105	0x3f943d94	1.1581292
106	0x3ff1419a	1.8848145
107	0x3f99d71b	1.201877
108	0x3fe9493c	1.8225474
109	0x4001f1d6	2.0303855
110	0xc03267b5	-2.7875798
111	0xbf4896ed	-0.78355294
112	0x3ff24e01	1.8930055
113	0x3da25f47	0.07928329
114	0xc0c9a8af	-6.3018413
115	0xbf5ddb12	-0.866624
116	0xbfe6d35e	-1.8033254
117	0xc023e4ce	-2.5608401
118	0xc00c6fd6	-2.194326
119	0x3f159ea3	0.58445185
120	0x3fe21d58	1.7665205
121	0xbe61a164	-0.22034222
122	0x406d9332	3.712109
123	0x3bfcb736	0.00771227
124	0xc0339c00	-2.8063965
125	0x3fa23ecd	1.2675415
126	0xc0c7d3cf	-6.2446055
127	0xc00b471a	-2.1762147
128	0x40c6aa51	6.2082906
129	0x3cca1b73	0.024671292
130	0x40fbcd8d	7.8688416
131	0x4052328d	3.2843354
132	0xc0f2a3f6	-7.582515
133	0xc008538c	-2.1300993
134	0x40c56f47	6.1698337
135	0x3f2395a8	0.6390023
136	0xc087d75c	-4.245039
137	0x407bab90	3.9323463
138	0x40142735	2.314893
139	0x3fb95fb6	1.4482334
140	0xbf91c59b	-1.1388429
141	0xbc7000e6	-0.014648652
142	0x3f14bac6	0.58097494
143	0x405793c4	3.368394
144	0xbd48c188	-0.04901269
145	0xc0118b40	-2.2741241
146	0xbf94e95e	-1.1633718
147	0xc0abb32c	-5.3656216
148	0xc0799490	-3.8996925
149	0x402abb12	2.6676679
150	0x3f54a11b	0.8305833
151	0xbdc03283	-0.09384634
152	0x4036d57f	2.8567808
153	0xbeb86dd3	-0.3602129
154	0x40b7e02e	5.7461157
155	0xbf585aed	-0.8451374
156	0xbfff136c	-1.9927802
157	0x403bb930	2.933178
158	0x400f65d7	2.2405908
159	0xbfd72a00	-1.6809692
160	0x4013f0ec	2.3115797
161	0x40833392	4.100045
162	0x40405f95	3.0058339
163	0xbf9ab836	-1.2087467
164	0xbf4ebfde	-0.80761516
165	0xbf13dfac	-0.5776317
166	0x4084166f	4.1277385
167	0xbfc0cb2d	-1.5062004
168	0xc0173146	-2.3623824
169	0xc0488871	-3.1333277
170	0x3e9c2031	0.3049331
171	0xc08684b3	-4.2036986
172	0xc0c8c7ba	-6.2743807
173	0xc1003e87	-8.015265
174	0xbf986efa	-1.1908867
175	0x400a7354	2.163289
176	0x4014fd49	2.3279593
177	0x3dbe8a14	0.0930368
178	0x4062d256	3.544088
179	0xc003635a	-2.052939
180	0xbeac6645	-0.33671775
181	0xc098ebab	-4.778768
182	0x3f223f93	0.63378257
183	0xbe95d79e	-0.29266065
184	0xc0df8a87	-6.98566
185	0x3ed56803	0.41680917
186	0xbf3837ba	-0.7196003
187	0xc0b5bd67	-5.6793704
188	0x3d7c5e9a	0.061613657
189	0xc06c37e6	-3.6909118
190	0x3ff52399	1.9151489
191	0x401e57fa	2.4741197
192	0xbfafacb1	-1.3724576
193	0x4006cde7	2.1063173
194	0x3daca46d	0.08429799
195	0x3fbd1c96	1.4774349
196	0x3f5d53da	0.8645607
197	0xbf748b66	-0.95525205
198	0xc0866121	-4.1993566
199	0x3ebbc16b	0.36671004
200	0x3e97d553	0.2965494
201	0xbe32c088	-0.17456257
202	0x3f879516	1.0592372
203	0x3e9bf1db	0.3045796
204	0x3e507b71	0.20359589
205	0x4020a090	2.5098
206	0xbfc0b927	-1.5056504
207	0xbfa7d8c4	-1.3113027
208	0x3e9a6492	0.30154854
209	0x3e4598de	0.19296595
210	0xbf02250d	-0.50837785
211	0x401ade97	2.4198358
212	0xbe2b0cbd	-0.16704078
213	0x4046bc96	3.1052604
214	0xbeb834d4	-0.35977805
215	0xc00b259b	-2.1741703
216	0xbf68f2f8	-0.9099574
217	0x3fa1a3b8	1.2628088
218	0xc06c789d	-3.6948617
219	0xbf05d091	-0.5227137
220	0xc01e8a91	-2.4772074
221	0xbfb450c0	-1.4087143
222	0x3ff2b527	1.8961533
223	0xbfe7bdf4	-1.8104844
224	0x4089bdec	4.304434
225	0xbf766660	-0.9624996
226	0xbecfb463	-0.40567312
227	0xc02375de	-2.554069
228	0xbf76c52b	-0.96394604
229	0xc0098485	-2.1487134
230	0x3f2efe06	0.6835636
231	0xc08480ea	-4.1407366
232	0x40c109ef	6.0324626
233	0xc10025ad	-8.009198
234	0x40773b33	3.8629882
235	0xc034af7d	-2.823211
236	0xbf6ce1c3	-0.92531985
237	0xc01435ef	-2.3157918
238	0xbf91bbe6	-1.1385467
239	0x3e225589	0.15852942
240	0xc00cda80	-2.2008362
241	0x40722eb0	3.7840996
242	0xc06c1130	-3.688549
243	0x40650cc1	3.5789034
244	0xc06cfcd4	-3.7029314
245	0x3f987cc7	1.1913079
246	0x408f8c7e	4.4859
247	0x400ce163	2.2012565
248	0xc0048763	-2.0707633
249	0x3eb8f23e	0.36122316
250	0x40c96649	6.293736
251	0xbf6a0fa1	-0.914301
252	0xc0473a1c	-3.1129217
253	0xbfe5bcda	-1.7948258
254	0xc0aa82ed	-5.328482
255	0x3ddba02a	0.10723908

0_self_connection_intro.linear.output_mask f4 [352]
0	0x3f800000	1.0
1	0x3f800000	1.0
2	0x3f800000	1.0
3	0x3f800000	1.0
4	0x3f800000	1.0
5	0x3f800000	1.0
6	0x3f800000	1.0
7	0x3f800000	1.0
8	0x3f800000	1.0
9	0x3f800000	1.0
10	0x3f800000	1.0
11	0x3f800000	1.0
12	0x3f800000	1.0
13	0x3f800000	1.0
14	0x3f800000	1.0
15	0x3f800000	1.0
16	0x3f800000	1.0
17	0x3f800000	1.0
18	0x3f800000	1.0
19	0x3f800000	1.0
20	0x3f800000	1.0
21	0x3f800000	1.0
22	0x3f800000	1.0
23	0x3f800000	1.0
24	0x3f800000	1.0
25	0x3f800000	1.0
26	0x3f800000	1.0
27	0x3f800000	1.0
28	0x3f800000	1.0
29	0x3f800000	1.0
30	0x3f800000	1.0
31	0x3f800000	1.0
32	0x3f800000	1.0
33	0x3f800000	1.0
34	0x3f800000	1.0
35	0x3f800000	1.0
36	0x3f800000	1.0
37	0x3f800000	1.0
38	0x3f800000	1.0
39	0x3f800000	1.0
40	0x3f800000	1.0
41	0x3f800000	1.0
42	0x3f800000	1.0
43	0x3f800000	1.0
44	0x3f800000	1.0
45	0x3f800000	1.0
46	0x3f800000	1.0
47	0x3f800000	1.0
48	0x3f800000	1.0
49	0x3f800000	1.0
50	0x3f800000	1.0
51	0x3f800000	1.0
52	0x3f800000	1.0
53	0x3f800000	1.0
54	0x3f800000	1.0
55	0x3f800000	1.0
56	0x3f800000	1.0
57	0x3f800000	1.0
58	0x3f800000	1.0
59	0x3f800000	1.0
60	0x3f800000	1.0
61	0x3f800000	1.0
62	0x3f800000	1.0
63	0x3f800000	1.0
64	0x3f800000	1.0
65	0x3f800000	1.0
66	0x3f800000	1.0
67	0x3f800000	1.0
68	0x3f800000	1.0
69	0x3f800000	1.0
70	0x3f800000	1.0
71	0x3f800000	1.0
72	0x3f800000	1.0
73	0x3f800000	1.0
74	0x3f800000	1.0
75	0x3f800000	1.0
76	0x3f800000	1.0
77	0x3f800000	1.0
78	0x3f800000	1.0
79	0x3f800000	1.0
80	0x3f800000	1.0
81	0x3f800000	1.0
82	0x3f800000	1.0
83	0x3f800000	1.0
84	0x3f800000	1.0
85	0x3f800000	1.0
86	0x3f800000	1.0
87	0x3f800000	1.0
88	0x3f800000	1.0
89	0x3f800000	1.0
90	0x3f800000	1.0
91	0x3f800000	1.0
92	0x3f800000	1.0
93	0x3f800000	1.0
94	0x3f800000	1.0
95	0x3f800000	1.0
96	0x00000000	0.0
97	0x00000000	0.0
98	0x00000000	0.0
99	0x00000000	0.0
100	0x00000000	0.0
101	0x00000000	0.0
102	0x00000000	0.0
103	0x00000000	0.0
104	0x00000000	0.0
105	0x00000000	0.0
106	0x00000000	0.0
107	0x00000000	0.0
108	0x00000000	0.0
109	0x00000000	0.0
110	0x00000000	0.0
111	0x00000000	0.0
112	0x00000000	0.0
113	0x00000000	0.0
114	0x00000000	0.0
115	0x00000000	0.0
116	0x00000000	0.0
117	0x00000000	0.0
118	0x00000000	0.0
119	0x00000000	0.0
120	0x00000000	0.0
121	0x00000000	0.0
122	0x00000000	0.0
123	0x00000000	0.0
124	0x00000000	0.0
125	0x00000000	0.0
126	0x00000000	0.0
127	0x00000000	0.0
128	0x00000000	0.0
129	0x00000000	0.0
130	0x00000000	0.0
131	0x00000000	0.0
132	0x00000000	0.0
133	0x00000000	0.0
134	0x00000000	0.0
135	0x00000000	0.0
136	0x00000000	0.0
137	0x00000000	0.0
138	0x00000000	0.0
139	0x00000000	0.0
140	0x00000000	0.0
141	0x00000000	0.0
142	0x00000000	0.0
143	0x00000000	0.0
144	0x00000000	0.0
145	0x00000000	0.0
146	0x00000000	0.0
147	0x00000000	0.0
148	0x00000000	0.0
149	0x00000000	0.0
150	0x00000000	0.0
151	0x00000000	0.0
152	0x00000000	0.0
153	0x00000000	0.0
154	0x00000000	0.0
155	0x00000000	0.0
156	0x00000000	0.0
157	0x00000000	0.0
158	0x00000000	0.0
159	0x00000000	0.0
160	0x00000000	0.0
161	0x00000000	0.0
162	0x00000000	0.0
163	0x00000000	0.0
164	0x00000000	0.0
165	0x00000000	0.0
166	0x00000000	0.0
167	0x00000000	0.0
168	0x00000000	0.0
169	0x00000000	0.0
170	0x00000000	0.0
171	0x00000000	0.0
172	0x00000000	0.0
173	0x00000000	0.0
174	0x00000000	0.0
175	0x00000000	0.0
176	0x00000000	0.0
177	0x00000000	0.0
178	0x00000000	0.0
179	0x00000000	0.0
180	0x00000000	0.0
181	0x00000000	0.0
182	0x00000000	0.0
183	0x00000000	0.0
184	0x00000000	0.0
185	0x00000000	0.0
186	0x00000000	0.0
187	0x00000000	0.0
188	0x00000000	0.0
189	0x00000000	0.0
190	0x00000000	0.0
191	0x00000000	0.0
192	0x00000000	0.0
193	0x00000000	0.0
194	0x00000000	0.0
195	0x00000000	0.0
196	0x00000000	0.0
197	0x00000000	0.0
198	0x00000000	0.0
199	0x00000000	0.0
200	0x00000000	0.0
201	0x00000000	0.0
202	0x00000000	0.0
203	0x00000000	0.0
204	0x00000000	0.0
205	0x00000000	0.0
206	0x00000000	0.0
207	0x00000000	0.0
208	0x00000000	0.0
209	0x00000000	0.0
210	0x00000000	0.0
211	0x00000000	0.0
212	0x00000000	0.0
213	0x00000000	0.0
214	0x00000000	0.0
215	0x00000000	0.0
216	0x00000000	0.0
217	0x00000000	0.0
218	0x00000000	0.0
219	0x00000000	0.0
220	0x00000000	0.0
221	0x00000000	0.0
222	0x00000000	0.0
223	0x00000000	0.0
224	0x00000000	0.0
225	0x00000000	0.0
226	0x00000000	0.0
227	0x00000000	0.0
228	0x00000000	0.0
229	0x00000000	0.0
230	0x00000000	0.0
231	0x00000000	0.0
232	0x00000000	0.0
233	0x00000000	0.0
234	0x00000000	0.0
235	0x00000000	0.0
236	0x00000000	0.0
237	0x00000000	0.0
238	0x00000000	0.0
239	0x00000000	0.0
240	0x00000000	0.0
241	0x00000000	0.0
242	0x00000000	0.0
243	0x00000000	0.0
244	0x00000000	0.0
245	0x00000000	0.0
246	0x00000000	0.0
247	0x00000000	0.0
248	0x00000000	0.0
249	0x00000000	0.0
250	0x00000000	0.0
251	0x00000000	0.0
252	0x00000000	0.0
253	0x00000000	0.0
254	0x00000000	0.0
255	0x00000000	0.0

0_self_interaction_1.linear.weight f4 [1024]
0	0xbf940c3d	-1.1566235
1	0x3ee03e16	0.43797368
2	0x3ff2177d	1.8913418
3	0xc06a2943	-3.6587684
4	0x40ba077a	5.8134127
5	0x3fbd70b4	1.4800019
6	0x3f8ea0ca	1.1142819
7	0x3f04a541	0.5181466
8	0xc0582d58	-3.3777676
9	0xbf8c4e9d	-1.0961491
10	0xc07d3d38	-3.9568615
11	0x402862b1	2.6310236
12	0xbffc2b37	-1.9700688
13	0xc00c4df3	-2.1922576
14	0xc0743e60	-3.816307
15	0xbfde087b	-1.7346338
16	0xc0854b48	-4.1654396
17	0x3fa80d5e	1.3129079
18	0x407688c5	3.8520977
19	0xc09d8a95	-4.9231668
20	0xc093b5a7	-4.6159244
21	0x3bde1b2d	0.006778142
22	0x400ea63b	2.228896
23	0xbdedea1b	-0.11616918
24	0x3fa2c203	1.2715458
25	0xbf866f9b	-1.0502809
26	0x40a5aa6f	5.177055
27	0x3fada643	1.3566364
28	0xc0878a1c	-4.235609
29	0x40099e52	2.150288
30	0xbfe77d53	-1.8085121
31	0xbf9aabda	-1.2083695
32	0x3f58d75b	0.84703606
33	0x3f4d5551	0.8020831
34	0xbf5feb11	-0.8746806
35	0x3f412970	0.75453854
36	0x3f86ffd0	1.0546818
37	0xbff16400	-1.8858643
38	0x40133c61	2.3005602
39	0x3f73bc8c	0.95209575
40	0xbd4e238d	-0.050326873
41	0x3f39b27a	0.7253796
42	0xbf3cc040	-0.7373085
43	0xbf8a0825	-1.0783736
44	0x3ff6600a	1.9248059
45	0x3f532d23	0.8249075
46	0xbfa2771d	-1.26926
47	0xbf404f28	-0.7512078
48	0xbf7a59fc	-0.97793555
49	0x404526c3	3.0804908
50	0x3f87bf54	1.0605264
51	0xbd0b6c4d	-0.03403883
52	0x3f8c310f	1.0952471
53	0xbfb890d0	-1.4419193
54	0x3fa17d49	1.2616359
55	0xbfb7127f	-1.430252
56	0xbebe39ff	-0.37153623
57	0xc025dc5e	-2.5915751
58	0x3ffa6d9d	1.9564701
59	0xbe60aef9	-0.21941747
60	0x4006dc3d	2.1071923
61	0xbfcd567a	-1.6042016
62	0xbe8e4dca	-0.27793723
63	0x3f1efce4	0.6210463
64	0xbf1949a7	-0.5987801
65	0xc082362d	-4.0691133
66	0x40a2ea02	5.0910654
67	0xbfc3c543	-1.5294574
68	0xc08f27d6	-4.473613
69	0x3fa83df6	1.3143909
70	0x400927fc	2.1430655
71	0x3ff1b5ad	1.8883568
72	0xc0664c59	-3.59841
73	0xbd89c819	-0.06727619
74	0xbfdb286e	-1.7121713
75	0xbd8e5cda	-0.06951304
76	0x3f4149c4	0.7550318
77	0x40384823	2.8794029
78	0x40277bf7	2.6169412
79	0xbf5ba1f0	-0.8579397
80	0xbf621f06	-0.8832859
81	0x40416fcc	3.0224485
82	0xc0065666	-2.0990233
83	0x3fbc3b70	1.4705639
84	0x3fe97eb1	1.8241788
85	0xbf7d7607	-0.9900822
86	0xbd3c420d	-0.04596143
87	0xbffc24d5	-1.969874
88	0x3f50314d	0.8132523
89	0x40507502	3.2571416
90	0xc08bb7b9	-4.366177
91	0xbd0b2518	-0.033970922
92	0x3f467ff6	0.77539
93	0x3f25298f	0.6451654
94	0xbfb7c1e0	-1.4356041
95	0xbd858ef5	-0.065214075
96	0xc03dfeb2	-2.9686704
97	0xbfc0377e	-1.5016935
98	0x3eff66a9	0.4988301
99	0x3fb4f924	1.4138532
100	0x3e63816e	0.22217342
101	0x40443a29	3.0660498
102	0x3f23d3c8	0.6399503
103	0x405df4c9	3.4680655
104	0xbe8ad3ea	-0.27114803
105	0x4000ad50	2.0105782
106	0xbf9cde61	-1.2255365
107	0x3ff298ac	1.8952842
108	0xc02b7f77	-2.6796548
109	0xbf95d930	-1.1706905
110	0xbfb453e5	-1.4088103
111	0x3f8b5882	1.0886385
112	0x3f879cc0	1.0594711
113	0x3f4dedae	0.80440795
114	0x3ef88596	0.48539418
115	0xc0471e10	-3.1112099
116	0xc00f8277	-2.242338
117	0x40318816	2.773931
118	0x3feca8aa	1.8488972
119	0x3fd7aa7e	1.6848905
120	0x401ce99b	2.4517581
121	0x4013908d	2.3056977
122	0x3fc9ff60	1.5781059
123	0xbc80134e	-0.015634205
124	0xbf1e6752	-0.61876404
125	0x3f21836f	0.63091177
126	0xc0d82213	-6.7541595
127	0x4016b15d	2.3545754
128	0xc07476f5	-3.8197606
129	0xc086e361	-4.215256
130	0xbe5e4c72	-0.21708849
131	0x406707b1	3.6098444
132	0xbffa3640	-1.9547806
133	0x409ef277	4.9670978
134	0x3efa579f	0.48894975
135	0x3fca7c2d	1.5819145
136	0xc013e0c5	-2.3105938
137	0xbfb21bee	-1.3914773
138	0xbc449cad	-0.012000245
139	0x3b5ff98f	0.0034175848
140	0x3ef1d26e	0.47230858
141	0xc08cf3ac	-4.404745
142	0xbfd4bccc	-1.6620116
143	0x3f8070de	1.0034444
144	0xbf9f0f59	-1.2426559
145	0xbeb8ffe4	-0.3613273
146	0x3fde6929	1.7375842
147	0xbec63885	-0.38714996
148	0xbf88c313	-1.0684532
149	0x3ed824b7	0.4221551
150	0xbe2a97bb	-0.16659443
151	0xc0212129	-2.517649
152	0x40a3d59d	5.119826
153	0x3ffe457a	1.9864953
154	0x3fa53440	1.290657
155	0xc00b888d	-2.1802094
156	0x408b5437	4.35403
157	0xc002dd9a	-2.0447755
158	0xbf136d97	-0.57589096
159	0x3ecd12b8	0.40053344
160	0xbfe91b69	-1.821149
161	0x3d7d566a	0.06184999
162	0x3f8a5d54	1.0809731
163	0xbf3beace	-0.7340516
164	0x3f95a85c	1.1692004
165	0x3fdc35ce	1.720392
166	0xbfda09f9	-1.7034293
167	0x3fe1e1f6	1.7647083
168	0x40186a89	2.3815024
169	0xbf0edf16	-0.5580915
170	0xbf775b46	-0.9662365
171	0xbf988577	-1.191573
172	0xc0b743ec	-5.7270412
173	0xbf4f136e	-0.8088902
174	0xbe46c7fe	-0.19412228
175	0xbfc53a85	-1.5408484
176	0x4091b90e	4.5538397
177	0xc03fb035	-2.9951298
178	0xbf42dd0b	-0.76118535
179	0x3f06aaa6	0.5260414
180	0xbe300f42	-0.1719332
181	0x4001cba7	2.028055
182	0xbf51442d	-0.81744653
183	0x3e1b986c	0.15194863
184	0x3fce7f67	1.613263
185	0x3fe74f42	1.8071063
186	0x4030f1c8	2.7647572
187	0xbfa37aa6	-1.2771804
188	0xc0196f24	-2.3974085
189	0x3fa9680b	1.3234876
190	0x3efcbd6d	0.4936327
191	0xc009b3a0	-2.1515884
192	0xbfd1e4f8	-1.6398001
193	0xbf89a355	-1.075297
194	0xbf92414a	-1.1426175
195	0x40818639	4.0476346
196	0x403ddec0	2.9667206
197	0xc03c3257	-2.9405725
198	0xbfe155f6	-1.7604358
199	0xbfaa0ba8	-1.3284807
200	0x3f37ba17	0.71768326
201	0x4047aa71	3.119778
202	0x4013f14e	2.311603
203	0xbea307f0	-0.31841993
204	0xbfaacbbc	-1.3343425
205	0x403448e1	2.8169482
206	0x3effa1ee	0.4992823
207	0xbfac4146	-1.345742
208	0x3f8b0c6c	1.0863166
209	0x4014f873	2.3276641
210	0x3e62dd21	0.22154666
211	0x40799c58	3.9001675
212	0xbeba311d	-0.36365595
213	0x3f8be6fc	1.0929866
214	0x3f4871d7	0.78298706
215	0xbef13961	-0.4711409
216	0x400b82ca	2.1798577
217	0xbcc40aee	-0.023930993
218	0xbf54bbb7	-0.8309893
219	0xc0879c9a	-4.2378664
220	0xbcf6fc82	-0.030149702
221	0xbf738cba	-0.95136607
222	0xbf6f8c24	-0.9357321
223	0x4093da47	4.620395
224	0xbf29535f	-0.6614284
225	0x3fd30e19	1.6488677
226	0xc02ba082	-2.6816716
227	0x3e7f74af	0.24946855
228	0x3f378c0c	0.7169807
229	0xc0156c6f	-2.3347433
230	0x40076b5a	2.1159272
231	0x3fc21dd0	1.5165348
232	0x3fadd2e0	1.3579979
233	0xbe16d088	-0.14727986
234	0xc0204edb	-2.504813
235	0x3f8ac905	1.0842596
236	0x3ecfa278	0.4055364
237	0xbe9bbb0a	-0.30416137
238	0xbe4f6021	-0.20251514
239	0xc04ae6b6	-3.1703315
240	0x3f9d1b87	1.2274026
241	0x3fe571f9	1.7925407
242	0xbfd25406	-1.6431892
243	0x3feb3d1b	1.8378023
244	0xbdb43b92	-0.08800425
245	0x3fd5488a	1.6662762
246	0x3f5f76f2	0.8729087
247	0xbd9947a1	-0.07484365
248	0x3fb1b9a2	1.3884776
249	0xbf547478	-0.8299022
250	0xbf25d315	-0.6477521
251	0x3f9bf0d1	1.2182866
252	0x3f7d0bec	0.98846316
253	0x3fd663eb	1.6749243
254	0x406825f0	3.6273155
255	0x3d82727e	0.06369494

0_self_interaction_1.linear.output_mask f4 [32]
0	0x3f800000	1.0
1	0x3f800000	1.0
2	0x3f800000	1.0
3	0x3f800000	1.0
4	0x3f800000	1.0
5	0x3f800000	1.0
6	0x3f800000	1.0
7	0x3f800000	1.0
8	0x3f800000	1.0
9	0x3f800000	1.0
10	0x3f800000	1.0
11	0x3f800000	1.0
12	0x3f800000	1.0
13	0x3f800000	1.0
14	0x3f800000	1.0
15	0x3f800000	1.0
16	0x3f800000	1.0
17	0x3f800000	1.0
18	0x3f800000	1.0
19	0x3f800000	1.0
20	0x3f800000	1.0
21	0x3f800000	1.0
22	0x3f800000	1.0
23	0x3f800000	1.0
24	0x3f800000	1.0
25	0x3f800000	1.0
26	0x3f800000	1.0
27	0x3f800000	1.0
28	0x3f800000	1.0
29	0x3f800000	1.0
30	0x3f800000	1.0
31	0x3f800000	1.0

0_convolution.convolution.output_mask f4 [288]
0	0x3f800000	1.0
1	0x3f800000	1.0
2	0x3f800000	1.0
3	0x3f800000	1.0
4	0x3f800000	1.0
5	0x3f800000	1.0
6	0x3f800000	1.0
7	0x3f800000	1.0
8	0x3f800000	1.0
9	0x3f800000	1.0
10	0x3f800000	1.0
11	0x3f800000	1.0
12	0x3f800000	1.0
13	0x3f800000	1.0
14	0x3f800000	1.0
15	0x3f800000	1.0
16	0x3f800000	1.0
17	0x3f800000	1.0
18	0x3f800000	1.0
19	0x3f800000	1.0
20	0x3f800000	1.0
21	0x3f800000	1.0
22	0x3f800000	1.0
23	0x3f800000	1.0
24	0x3f800000	1.0
25	0x3f800000	1.0
26	0x3f800000	1.0
27	0x3f800000	1.0
28	0x3f800000	1.0
29	0x3f800000	1.0
30	0x3f800000	1.0
31	0x3f800000	1.0
32	0x3f800000	1.0
33	0x3f800000	1.0
34	0x3f800000	1.0
35	0x3f800000	1.0
36	0x3f800000	1.0
37	0x3f800000	1.0
38	0x3f800000	1.0
39	0x3f800000	1.0
40	0x3f800000	1.0
41	0x3f800000	1.0
42	0x3f800000	1.0
43	0x3f800000	1.0
44	0x3f800000	1.0
45	0x3f800000	1.0
46	0x3f800000	1.0
47	0x3f800000	1.0
48	0x3f800000	1.0
49	0x3f800000	1.0
50	0x3f800000	1.0
51	0x3f800000	1.0
52	0x3f800000	1.0
53	0x3f800000	1.0
54	0x3f800000	1.0
55	0x3f800000	1.0
56	0x3f800000	1.0
57	0x3f800000	1.0
58	0x3f800000	1.0
59	0x3f800000	1.0
60	0x3f800000	1.0
61	0x3f800000	1.0
62	0x3f800000	1.0
63	0x3f800000	1.0
64	0x3f800000	1.0
65	0x3f800000	1.0
66	0x3f800000	1.0
67	0x3f800000	1.0
68	0x3f800000	1.0
69	0x3f800000	1.0
70	0x3f800000	1.0
71	0x3f800000	1.0
72	0x3f800000	1.0
73	0x3f800000	1.0
74	0x3f800000	1.0
75	0x3f800000	1.0
76	0x3f800000	1.0
77	0x3f800000	1.0
78	0x3f800000	1.0
79	0x3f800000	1.0
80	0x3f800000	1.0
81	0x3f800000	1.0
82	0x3f800000	1.0
83	0x3f800000	1.0
84	0x3f800000	1.0
85	0x3f800000	1.0
86	0x3f800000	1.0
87	0x3f800000	1.0
88	0x3f800000	1.0
89	0x3f800000	1.0
90	0x3f800000	1.0
91	0x3f800000	1.0
92	0x3f800000	1.0
93	0x3f800000	1.0
94	0x3f800000	1.0
95	0x3f800000	1.0
96	0x3f800000	1.0
97	0x3f800000	1.0
98	0x3f800000	1.0
99	0x3f800000	1.0
100	0x3f800000	1.0
101	0x3f800000	1.0
102	0x3f800000	1.0
103	0x3f800000	1.0
104	0x3f800000	1.0
105	0x3f800000	1.0
106	0x3f800000	1.0
107	0x3f800000	1.0
108	0x3f800000	1.0
109	0x3f800000	1.0
110	0x3f800000	1.0
111	0x3f800000	1.0
112	0x3f800000	1.0
113	0x3f800000	1.0
114	0x3f800000	1.0
115	0x3f800000	1.0
116	0x3f800000	1.0
117	0x3f800000	1.0
118	0x3f800000	1.0
119	0x3f800000	1.0
120	0x3f800000	1.0
121	0x3f800000	1.0
122	0x3f800000	1.0
123	0x3f800000	1.0
124	0x3f800000	1.0
125	0x3f800000	1.0
126	0x3f800000	1.0
127	0x3f800000	1.0
128	0x3f800000	1.0
129	0x3f800000	1.0
130	0x3f800000	1.0
131	0x3f800000	1.0
132	0x3f800000	1.0
133	0x3f800000	1.0
134	0x3f800000	1.0
135	0x3f800000	1.0
136	0x3f800000	1.0
137	0x3f800000	1.0
138	0x3f800000	1.0
139	0x3f800000	1.0
140	0x3f800000	1.0
141	0x3f800000	1.0
142	0x3f800000	1.0
143	0x3f800000	1.0
144	0x3f800000	1.0
145	0x3f800000	1.0
146	0x3f800000	1.0
147	0x3f800000	1.0
148	0x3f800000	1.0
149	0x3f800000	1.0
150	0x3f800000	1.0
151	0x3f800000	1.0
152	0x3f800000	1.0
153	0x3f800000	1.0
154	0x3f800000	1.0
155	0x3f800000	1.0
156	0x3f800000	1.0
157	0x3f800000	1.0
158	0x3f800000	1.0
159	0x3f800000	1.0
160	0x3f800000	1.0
161	0x3f800000	1.0
162	0x3f800000	1.0
163	0x3f800000	1.0
164	0x3f800000	1.0
165	0x3f800000	1.0
166	0x3f800000	1.0
167	0x3f800000	1.0
168	0x3f800000	1.0
169	0x3f800000	1.0
170	0x3f800000	1.0
171	0x3f800000	1.0
172	0x3f800000	1.0
173	0x3f800000	1.0
174	0x3f800000	1.0
175	0x3f800000	1.0
176	0x3f800000	1.0
177	0x3f800000	1.0
178	0x3f800000	1.0
179	0x3f800000	1.0
180	0x3f800000	1.0
181	0x3f800000	1.0
182	0x3f800000	1.0
183	0x3f800000	1.0
184	0x3f800000	1.0
185	0x3f800000	1.0
186	0x3f800000	1.0
187	0x3f800000	1.0
188	0x3f800000	1.0
189	0x3f800000	1.0
190	0x3f800000	1.0
191	0x3f800000	1.0
192	0x3f800000	1.0
193	0x3f800000	1.0
194	0x3f800000	1.0
195	0x3f800000	1.0
196	0x3f800000	1.0
197	0x3f800000	1.0
198	0x3f800000	1.0
199	0x3f800000	1.0
200	0x3f800000	1.0
201	0x3f800000	1.0
202	0x3f800000	1.0
203	0x3f800000	1.0
204	0x3f800000	1.0
205	0x3f800000	1.0
206	0x3f800000	1.0
207	0x3f800000	1.0
208	0x3f800000	1.0
209	0x3f800000	1.0
210	0x3f800000	1.0
211	0x3f800000	1.0
212	0x3f800000	1.0
213	0x3f800000	1.0
214	0x3f800000	1.0
215	0x3f800000	1.0
216	0x3f800000	1.0
217	0x3f800000	1.0
218	0x3f800000	1.0
219	0x3f800000	1.0
220	0x3f800000	1.0
221	0x3f800000	1.0
222	0x3f800000	1.0
223	0x3f800000	1.0
224	0x3f800000	1.0
225	0x3f800000	1.0
226	0x3f800000	1.0
227	0x3f800000	1.0
228	0x3f800000	1.0
229	0x3f800000	1.0
230	0x3f800000	1.0
231	0x3f800000	1.0
232	0x3f800000	1.0
233	0x3f800000	1.0
234	0x3f800000	1.0
235	0x3f800000	1.0
236	0x3f800000	1.0
237	0x3f800000	1.0
238	0x3f800000	1.0
239	0x3f800000	1.0
240	0x3f800000	1.0
241	0x3f800000	1.0
242	0x3f800000	1.0
243	0x3f800000	1.0
244	0x3f800000	1.0
245	0x3f800000	1.0
246	0x3f800000	1.0
247	0x3f800000	1.0
248	0x3f800000	1.0
249	0x3f800000	1.0
250	0x3f800000	1.0
251	0x3f800000	1.0
252	0x3f800000	1.0
253	0x3f800000	1.0
254	0x3f800000	1.0
255	0x3f800000	1.0

0_convolution.weight_nn.layer0.weight f4 [8, 64]
0	0xbf81a51c	-1.0128512
1	0x393d060b	0.00018026696
2	0xb758fb4e	-1.2933115e-05
3	0x3f9410c6	1.1567619
4	0x39e78674	0.0004415993
5	0x3790e0fe	1.7270908e-05
6	0x40426cf4	3.0379
7	0xbf23b3c3	-0.6394617
8	0xb9a89eed	-0.00032161866
9	0x3a5b1103	0.0008356722
10	0x38bbd80c	8.957097e-05
11	0x37d3564f	2.519335e-05
12	0x39a32529	0.0003111747
13	0xbf2a2f5b	-0.6647851
14	0x391c8a35	0.00014928805
15	0x3e29d36c	0.16584557
16	0xba25dc9e	-0.0006327125
17	0x3981bb1a	0.000247442
18	0x3f2c3f9c	0.6728456
19	0xb8b94f81	-8.836296e-05
20	0x3fabea9d	1.3430973
21	0x39e9e8ff	0.0004461482
22	0x3eaa5d91	0.3327451
23	0x3f36e111	0.71437174
24	0xbdb35e79	-0.087582536
25	0x3ec45aea	0.38350612
26	0xb953f1c8	-0.00020212599
27	0x37038e21	7.8413e-06
28	0x38bb53fb	8.9324974e-05
29	0x3f3fbc07	0.7489628
30	0xb98bcd99	-0.00026665328
31	0xb8bd3537	-9.022134e-05
32	0x3a093738	0.00052343635
33	0xbe470a01	-0.1943741
34	0xb83a304f	-4.4390847e-05
35	0x3f8e5a97	1.1121396
36	0xb9848189	-0.00025273513
37	0x3fa58bad	1.2933251
38	0xbf3f48ee	-0.74720657
39	0xbe8b27de	-0.27178854
40	0x39a85b50	0.0003211149
41	0xb7a1d13d	-1.929013e-05
42	0x3e3ed799	0.18636931
43	0xb9c9c00a	-0.00038480788
44	0x38b29c93	8.516866e-05
45	0x395e5f2d	0.00021207026
46	0x3e7ac8a0	0.24490595
47	0xbdfea199	-0.12433166
48	0xb9b01335	-0.00033583646
49	0xb920153b	-0.00015266698
50	0xbf1d5dd8	-0.6147132
51	0x3eca7f11	0.3955007
52	0x391472f4	0.00014157203
53	0xba34a85c	-0.00068915426
54	0xbe939052	-0.28821045
55	0xbf4d7398	-0.8025451
56	0x3fb57567	1.4176453
57	0xb72c8104	-1.0282038e-05
58	0x396a9316	0.00022370773
59	0xbeccdc1b	-0.40011677
60	0xbd985ed7	-0.07439964
61	0xb8611347	-5.3662134e-05
62	0x3f2569b1	0.646144
63	0xbe1594df	-0.14607571
64	0xc0310b88	-2.7663288
65	0xb98bc0a3	-0.00026655672
66	0xb8bef5d0	-9.105692e-05
67	0x404dc272	3.214993
68	0xb72260e5	-9.6785125e-06
69	0xba012512	-0.00049264834
70	0x4061d71b	3.528754
71	0xbfe271f8	-1.769103
72	0xb9dcba25	-0.00042100358
73	0xbadab946	-0.0016687296
74	0xba056032	-0.00050878816
75	0x386d0680	5.6511257e-05
76	0xb8b92522	-8.828404e-05
77	0xc00178fe	-2.0230098
78	0x39fe545e	0.00048509514
79	0x3f21ce1e	0.63205135
80	0x3a95ccfa	0.0011428886
81	0x39a6b791	0.00031798755
82	0x402ba2f1	2.6818202
83	0x398b99ca	0.00026626728
84	0x40513870	3.2690697
85	0xba77ca33	-0.0009452432
86	0x3f98a433	1.192511
87	0x4022b2cf	2.5421636
88	0xbe90500c	-0.2818607
89	0x3f909adf	1.1297263
90	0x3a267b1a	0.0006350741
91	0xba242a89	-0.0006262442
92	0xba0174fc	-0.00049383915
93	0x40019199	2.0245116
94	0x3a152bef	0.00056904455
95	0x3a2c311d	0.0006568598
96	0xba69091a	-0.0008889601
97	0xbf36c366	-0.71391904
98	0x3931b4da	0.00016947408
99	0x40818124	4.047014
100	0x398eaee1	0.00027214646
101	0x4059fb2d	3.4059556
102	0xc0051096	-2.0791373
103	0xbf611574	-0.8792336
104	0x3955c230	0.00020385603
105	0x39a745bb	0.00031904675
106	0x3f28a298	0.658731
107	0x3a20d18e	0.00061347417
108	0x38b250cd	8.502752e-05
109	0x3a148a41	0.00056663534
110	0x3f31dc0f	0.6947641
111	0xbeaefc2a	-0.3417676
112	0x3a683eac	0.00088594365
113	0xb8abaaaa	-8.185704e-05
114	0x3fdc1742	1.7194598
115	0x3fdeeb8a	1.7415631
116	0xb998a76b	-0.00029116435
117	0x39b63b1f	0.00034757794
118	0xbf5869ac	-0.8453624
119	0x3fbf1df2	1.4931014
120	0x403960e4	2.8965387
121	0x39868320	0.00025656167
122	0x3a1a740d	0.00058919267
123	0xbf8cb9b7	-1.0994176
124	0x3eb57829	0.35443237
125	0xb9335f60	-0.000171063
126	0x3ff4f98c	1.9138656
127	0xbe803305	-0.25038925
128	0xbfc25c87	-1.5184487
129	0xb9da9957	-0.00041694447
130	0xbac31338	-0.0014883047
131	0x3fedf0f1	1.8589154
132	0xba12d6fd	-0.0005601494
133	0x3a954685	0.0011388814
134	0x3fa5a3e6	1.2940643
135	0x3f94983f	1.1608962
136	0x3a004f19	0.0004894599
137	0xba0fb449	-0.00054818817
138	0xba29fd09	-0.00064845436
139	0x39843a66	0.00025220512
140	0xba4ed673	-0.0007890232
141	0x3ea1f9ec	0.31635988
142	0x39df6d0e	0.00042615127
143	0x3e2b134e	0.16706583
144	0xba745cff	-0.0009321719
145	0x39099f48	0.00013124675
146	0xc0103874	-2.2534456
147	0xbad4fb69	-0.0016249242
148	0x401b4b34	2.426465
149	0x3a58a937	0.0008264961
150	0x3fb37301	1.4019471
151	0xbf0c9127	-0.54908985
152	0x3f9880b8	1.1914282
153	0x3f84d5f2	1.0377791
154	0xbadd959b	-0.0016905548
155	0x398cddc2	0.00026868103
156	0x3a6883cc	0.0008869737
157	0xbe04d662	-0.12972406
158	0xbab4a59a	-0.0013782263
159	0xb7470acf	-1.1863841e-05
160	0x3b16393f	0.0022922305
161	0xbfb9ac7a	-1.4505761
162	0xbafca53e	-0.001927532
163	0x40a06f33	5.013574
164	0xba4ffccc	-0.0007934093
165	0x4028787c	2.6323538
166	0xc0236522	-2.5530477
167	0x3e764a48	0.24051774
168	0xba7f3ea4	-0.0009736812
169	0xb8160d79	-3.5775334e-05
170	0x3dc23c22	0.09484126
171	0xb9caaa91	-0.00038655524
172	0x3a6252c4	0.0008633549
173	0xba1e9741	-0.000604976
174	0x3fc9e4de	1.577297
175	0x3eae85ab	0.34086356
176	0xba5f55c8	-0.00085195573
177	0x3a567a61	0.0008181688
178	0x402d2403	2.705323
179	0x3e7202c1	0.23633863
180	0x38be3141	9.06908e-05
181	0x39e43417	0.0004352636
182	0xbe38304f	-0.17987178
183	0x40217842	2.522965
184	0x3f88aaad	1.0677086
185	0xb9c72fae	-0.00037991762
186	0xbac9131c	-0.0015340778
187	0xbfe241b2	-1.7676299
188	0x404ab787	3.1674516
189	0xbb0c683f	-0.002142444
190	0x401ea56c	2.4788465
191	0xbfaac3eb	-1.334104
192	0xbf4f81f6	-0.8105768
193	0xba3e31bb	-0.0007255335
194	0x39bff278	0.00036611012
195	0x3fb95709	1.4479686
196	0x393991f4	0.00017697347
197	0xba32c2ce	-0.00068191893
198	0xbff35227	-1.9009446
199	0x401be668	2.435938
200	0x39315a51	0.00016913681
201	0x3b042b45	0.0020167392
202	0x3a1cf40b	0.0005987293
203	0x397963ec	0.00023783714
204	0xb9bcf5fd	-0.0003604143
205	0x401d6a69	2.4596198
206	0xba9e9b8a	-0.0012100798
207	0x3e06a16e	0.13147518
208	0xb85cd600	-5.265139e-05
209	0xb9b515eb	-0.0003453934
210	0xc026065d	-2.5941384
211	0x3b144b56	0.0022627912
212	0x3fab4efd	1.338348
213	0x37772d5a	1.47329065e-05
214	0x3ffb4105	1.9629217
215	0xc01ddd33	-2.466626
216	0x3f2e6e57	0.68137115
217	0xbf759754	-0.95934033
218	0x3ae3cfae	0.0017380619
219	0x39f3520d	0.00046409704
220	0xb92fd2ed	-0.00016767877
221	0xc054fcab	-3.3279216
222	0x3afedc03	0.0019444231
223	0x3a17e103	0.0005793722
224	0xbb073a09	-0.0020633957
225	0xbfa5ddc8	-1.2958307
226	0x3af57d47	0.0018729352
227	0x4094aab5	4.6458383
228	0x3a6aab23	0.0008951893
229	0xbfea927e	-1.8325956
230	0xbfaac55d	-1.334148
231	0x3f2ddf44	0.679188
232	0x39d79552	0.00041119248
233	0xba34a412	-0.00068909035
234	0x3f62dd9b	0.88619393
235	0x39e83f59	0.00044297686
236	0xb9a4f2a4	-0.000314613
237	0xb96b3363	-0.0002243049
238	0x3fa0c445	1.2559897
239	0x3f6ec47c	0.9326856
240	0x3a58e682	0.00082740944
241	0x38edbbf1	0.000113360475
242	0x3d022d15	0.031781275
243	0xbee4a2b8	-0.44655395
244	0xba04c03e	-0.00050640467
245	0xb8e2e916	-0.000108199354
246	0x3f2ea35e	0.6821803
247	0xbf70ec8c	-0.9411094
248	0x3fbd8fd5	1.4809519
249	0xb8daa75a	-0.00010426222
250	0x3a8af00e	0.0010600106
251	0xc02105b3	-2.5159729
252	0x403e5c04	2.9743662
253	0x3b1840ec	0.0023232056
254	0x402cbc3b	2.6989887
255	0xbf938167	-1.1523865

0_convolution.weight_nn.layer1.weight f4 [64, 64]
0	0x402e8503	2.7268684
1	0xbf492c32	-0.7858306
2	0x3f352ea3	0.70774287
3	0x3fb002b3	1.3750824
4	0x3fa0252d	1.2511345
5	0xbf1bc4ca	-0.6084715
6	0x3f514f2c	0.8176143
7	0x3f4c96c3	0.79917544
8	0xbfabe822	-1.3430216
9	0x3e5e0c2e	0.21684334
10	0x3fe223d5	1.7667185
11	0x3e842795	0.2581145
12	0x3ff3cdc0	1.9047165
13	0x3f164865	0.58704215
14	0x404cd5aa	3.200541
15	0x3f8c10ab	1.0942587
16	0x3d55886e	0.052132063
17	0x3fc467b0	1.5344143
18	0x3eb9f5f0	0.36320448
19	0x3f088c1e	0.533388
20	0xbf236285	-0.63822204
21	0xbfa7f0a1	-1.3120309
22	0x3f16bd50	0.5888262
23	0xbdac1a68	-0.08403474
24	0x3ed1a990	0.40949678
25	0x3fe1c304	1.7637639
26	0x3f0c22a6	0.5474037
27	0xbfcbf5a9	-1.5934345
28	0xbd716c52	-0.058941193
29	0x3dc34d47	0.09536224
30	0x403c3ff2	2.941403
31	0xc021ec6b	-2.5300548
32	0xc026b7a9	-2.6049597
33	0x3ffc9555	1.9733073
34	0x3fea2cfe	1.829498
35	0xbf73e65a	-0.95273364
36	0x3f5d7fe2	0.8652326
37	0xbee487a4	-0.44634736
38	0xc03f4d69	-2.9890997
39	0x3fb2d74c	1.3971953
40	0x3fb9bc9c	1.4510684
41	0x3e11fe4b	0.14257161
42	0x3f050325	0.51957923
43	0xbf79e381	-0.9761277
44	0x3f1f2f19	0.6218124
45	0x3ebc3816	0.3676154
46	0xbfb84f82	-1.4399264
47	0x3e2836eb	0.164272
48	0xbfcbc64a	-1.5919888
49	0xbf3122a1	-0.69193465
50	0xbec73e0f	-0.38914534
51	0x4013add0	2.3074837
52	0x3e70ff89	0.23534979
53	0x3e0c4ff3	0.13702373
54	0xbd568888	-0.0523763
55	0xbf25b288	-0.6472554
56	0xc01382ee	-2.3048663
57	0xbf02d2c0	-0.5110283
58	0x406049dc	3.504508
59	0xbf547c46	-0.83002126
60	0x3fa16cfe	1.2611387
61	0x3d6d0d02	0.057873733
62	0x3e9c99d2	0.30586106
63	0x409db802	4.928712
64	0xbba1e3ca	-0.0049404847
65	0xbb7dbe84	-0.0038718292
66	0xbce913f8	-0.028451905
67	0x3be51565	0.006991076
68	0x3b3a60c1	0.0028439017
69	0xbd2c593d	-0.04207729
70	0x3d446375	0.047946412
71	0x3dc31a3a	0.09526487
72	0x3ca37458	0.019952938
73	0xba140bd6	-0.00056475156
74	0xbb7f2621	-0.0038932639
75	0x3cc91e39	0.024550544
76	0x36ccdc1e	6.105299e-06
77	0xbb84edc2	-0.0040566633
78	0x3a2af1b0	0.00065209996
79	0xbb3bbaad	-0.0028645203
80	0xbc57fb1a	-0.013182426
81	0x3d220af3	0.039561223
82	0xbccee41d	-0.025255257
83	0xbd092077	-0.033478227
84	0x3da7ad00	0.08187294
85	0x3ae885d7	0.0017740083
86	0x3dba65e9	0.09101469
87	0x3a5207ff	0.0008012056
88	0x3ac35f76	0.0014905769
89	0xba20f77c	-0.00061403937
90	0xbb84015a	-0.0040284814
91	0xba654a18	-0.00087466976
92	0xbd8883ae	-0.06665741
93	0xbdc40b02	-0.09572412
94	0x3bf32ac3	0.007420869
95	0x3b9282eb	0.004471173
96	0xbd75ebcc	-0.060039327
97	0x3b4b8c6c	0.003105904
98	0x3b9ba0eb	0.0047494075
99	0x3c3b24af	0.01142232
100	0x3bed2abf	0.0072377617
101	0xbe01ec91	-0.12687899
102	0xba1265db	-0.00055846357
103	0x3ab08751	0.0013468062
104	0xbb383701	-0.0028108957
105	0xbd91a404	-0.071113616
106	0x3d15f5f1	0.0366115
107	0x38eca274	0.00011283616
108	0x3a9d85ab	0.0012017986
109	0xbc49901c	-0.012302425
110	0xbb0465fd	-0.0020202391
111	0xbc3c86a9	-0.011506715
112	0xbc38039c	-0.011231329
113	0x3a4474f2	0.0007494233
114	0xbe05249b	-0.13002245
115	0xba3d936f	-0.0007231747
116	0xbdae0147	-0.084963374
117	0x3d234ea5	0.039869923
118	0x3dbf0bc8	0.09328419
119	0xbaeb1a14	-0.0017936849
120	0xba8c041a	-0.0010682375
121	0x3d4c60fd	0.049897183
122	0x3b9e9767	0.004839826
123	0xbb477526	-0.0030434816
124	0xbdb8111f	-0.089876406
125	0xbd89d9be	-0.06730984
126	0xbdd39a6b	-0.10332187
127	0xbb09b2ad	-0.002101104
128	0xbbc59f9f	-0.006030991
129	0xb90934a7	-0.00013084953
130	0x3ce27b01	0.027646543
131	0x39e86fdd	0.00044333833
132	0x3afb286a	0.0019161825
133	0x3b734daf	0.003712516
134	0x3d5fa6d9	0.054602478
135	0x3e010874	0.12600881
136	0x3d389abb	0.045069437
137	0xba5eb942	-0.00084962335
138	0xba7c7a60	-0.00096312724
139	0xbd7b94d3	-0.061421227
140	0x3b0a5b46	0.0021111532
141	0xbadd7537	-0.0016895895
142	0xbb09f837	-0.0021052489
143	0x3a53a47f	0.0008073523
144	0x3c939019	0.018013047
145	0xbd9a2175	-0.07525913
146	0xbd747650	-0.059683144
147	0xbdb38ffe	-0.08767699
148	0x3e0edbba	0.13951007
149	0xb9bacbc1	-0.00035628493
150	0xbc378b84	-0.011202697
151	0x3a61f4f3	0.0008619569
152	0xbaed5b1c	-0.0018108818
153	0xba50052c	-0.0007935341
154	0xbd9d2fb3	-0.076751135
155	0x3af0b6a7	0.0018364982
156	0xbd40bfea	-0.047058024
157	0x397b9761	0.00023993618
158	0x3c18e19a	0.009331131
159	0x3b978aa1	0.00462468
160	0xbe3031ca	-0.17206493
161	0xba79ff68	-0.00095366547
162	0x3b299349	0.0025875142
163	0xbdabbfee	-0.08386217
164	0x3b11279e	0.0022148858
165	0xbd656eae	-0.056013756
166	0xba6fc88a	-0.0009147009
167	0x3af69d59	0.0018815204
168	0xbbc586c9	-0.0060280305
169	0xbbc93e37	-0.00614145
170	0xbd5dd9f5	-0.05416294
171	0xbb0eda6a	-0.0021797665
172	0x3b7b77f7	0.0038371065
173	0xbd29e533	-0.041478347
174	0xba24e87d	-0.0006290747
175	0xbd610152	-0.0549329
176	0xbb3e6e3a	-0.00290574
177	0x39b9bac1	0.00035425092
178	0xbd5a5a66	-0.053308867
179	0xbba79dac	-0.0051152315
180	0x3b456add	0.003012351
181	0x3d3abd57	0.045590725
182	0xbba29c66	-0.004962492
183	0xbb1c2339	-0.0023824705
184	0x398278dc	0.0002488558
185	0x3ac769aa	0.0015213985
186	0x3b809134	0.0039235596
187	0xba01f914	-0.0004958075
188	0xbd5a2d70	-0.05326599
189	0xbd16dece	-0.036833577
190	0xbdfa8f36	-0.122343466
191	0xbad23b1b	-0.0016039343
192	0xc0507714	-3.257268
193	0x3ec029b3	0.37531814
194	0xbec95343	-0.39321336
195	0x3faf4d18	1.3695402
196	0x401243c6	2.2853866
197	0x3fd00da5	1.6254164
198	0x3ff15fb5	1.8857332
199	0xbeecd728	-0.462579
200	0x3f5b33e2	0.8562604
201	0x406c60b5	3.6934025
202	0xbfa105bf	-1.2579879
203	0x3fbb8f5d	1.4653126
204	0x3f15f586	0.58577764
205	0xc0990b1d	-4.7826066
206	0xc0c770d3	-6.2325225
207	0xc11457ce	-9.271437
208	0xbf6de6d3	-0.92930335
209	0x3fc33c03	1.5252689
210	0xbf8e3683	-1.1110386
211	0xbe272275	-0.16321738
212	0xbf589468	-0.8460145
213	0xbf5bf50c	-0.85920787
214	0xbf61e5cc	-0.8824127
215	0xc020930a	-2.5089746
216	0xbfda33e2	-1.7047083
217	0xbeebaa6a	-0.46028453
218	0x401dbeb8	2.4647655
219	0x3f6b76e4	0.9197829
220	0x3faeab21	1.3645974
221	0x3ed1a32e	0.4094481
222	0xc0c33e6a	-6.101369
223	0xbeb4ba70	-0.3529849
224	0xbf397e09	-0.7245794
225	0xc0f8dfdd	-7.777327
226	0xbf1b1817	-0.60583633
227	0xbf84d795	-1.037829
228	0xbfb58fad	-1.4184471
229	0xbedc5dcf	-0.4304032
230	0xbfc6abe1	-1.5521203
231	0xbf11f857	-0.5701956
232	0xc04cd85d	-3.2007058
233	0xbf7fb68e	-0.9988793
234	0x3ee481c4	0.44630253
235	0x4066acfc	3.6043081
236	0xbfecddb0	-1.8505154
237	0xbf2d8805	-0.67785674
238	0x3fb72f00	1.4311218
239	0xbec2a059	-0.3801296
240	0xbfe25636	-1.768256
241	0xbf061545	-0.52376205
242	0xbf555cf6	-0.8334497
243	0xc09f2bbf	-4.97409
244	0xbf00e9eb	-0.5035693
245	0x3ff4698d	1.9094712
246	0x3fd50ed6	1.6645153
247	0xc023c496	-2.5588737
248	0x3f886650	1.0656223
249	0x3f26c620	0.65146065
250	0xbd8dd132	-0.069246665
251	0x401ba819	2.4321349
252	0x4010fa67	2.2652833
253	0x3f20b701	0.6277924
254	0x3f0230aa	0.50855505
255	0xc02a2fef	-2.6591756
